…
usage: main.py [-h] [--batchSize BATCHSIZE] [--testBatchSize TESTBATCHSIZE]
               [--nEpochs NEPOCHS] [--lr LR] [--momentum MOMENTUM]
               [--threads THREADS] [--seed SEED] [--gpu GPU]
main.py: error: unrecognized arguments: -- gpu 0
nohup: ignoring input
Namespace(batchSize=256, gpu='0', lr=0.01, momentum=0.9, nEpochs=500, seed=123, testBatchSize=10, threads=1)
===> Loading datasets
===> Building model
----------------------------------------------------------------
        Layer (type)               Output Shape         Param #
================================================================
            Conv2d-1          [-1, 64, 72, 272]            1792
              ReLU-2          [-1, 64, 72, 272]               0
            Conv2d-3          [-1, 64, 72, 272]           36928
              ReLU-4          [-1, 64, 72, 272]               0
         MaxPool2d-5          [-1, 64, 36, 136]               0
            Conv2d-6         [-1, 128, 36, 136]           73856
              ReLU-7         [-1, 128, 36, 136]               0
            Conv2d-8         [-1, 128, 36, 136]          147584
              ReLU-9         [-1, 128, 36, 136]               0
        MaxPool2d-10          [-1, 128, 18, 68]               0
           Conv2d-11          [-1, 256, 18, 68]          295168
             ReLU-12          [-1, 256, 18, 68]               0
           Conv2d-13          [-1, 256, 18, 68]          590080
             ReLU-14          [-1, 256, 18, 68]               0
           Conv2d-15          [-1, 256, 18, 68]          590080
             ReLU-16          [-1, 256, 18, 68]               0
        MaxPool2d-17           [-1, 256, 9, 34]               0
           Conv2d-18           [-1, 512, 9, 34]         1180160
             ReLU-19           [-1, 512, 9, 34]               0
           Conv2d-20           [-1, 512, 9, 34]         2359808
             ReLU-21           [-1, 512, 9, 34]               0
           Conv2d-22           [-1, 512, 9, 34]         2359808
             ReLU-23           [-1, 512, 9, 34]               0
        MaxPool2d-24           [-1, 512, 4, 17]               0
           Conv2d-25           [-1, 512, 4, 17]         2359808
             ReLU-26           [-1, 512, 4, 17]               0
           Conv2d-27           [-1, 512, 4, 17]         2359808
             ReLU-28           [-1, 512, 4, 17]               0
           Conv2d-29           [-1, 512, 4, 17]         2359808
             ReLU-30           [-1, 512, 4, 17]               0
        MaxPool2d-31            [-1, 512, 2, 8]               0
          Feature-32            [-1, 512, 2, 8]               0
           Linear-33                 [-1, 2048]        16779264
             ReLU-34                 [-1, 2048]               0
          Dropout-35                 [-1, 2048]               0
           Linear-36                 [-1, 1024]         2098176
             ReLU-37                 [-1, 1024]               0
          Dropout-38                 [-1, 1024]               0
           Linear-39                   [-1, 31]           31775
           Linear-40                 [-1, 2048]        16779264
             ReLU-41                 [-1, 2048]               0
          Dropout-42                 [-1, 2048]               0
           Linear-43                 [-1, 1024]         2098176
             ReLU-44                 [-1, 1024]               0
          Dropout-45                 [-1, 1024]               0
           Linear-46                   [-1, 24]           24600
           Linear-47                 [-1, 2048]        16779264
             ReLU-48                 [-1, 2048]               0
          Dropout-49                 [-1, 2048]               0
           Linear-50                 [-1, 1024]         2098176
             ReLU-51                 [-1, 1024]               0
          Dropout-52                 [-1, 1024]               0
           Linear-53                   [-1, 34]           34850
           Linear-54                 [-1, 2048]        16779264
             ReLU-55                 [-1, 2048]               0
          Dropout-56                 [-1, 2048]               0
           Linear-57                 [-1, 1024]         2098176
             ReLU-58                 [-1, 1024]               0
          Dropout-59                 [-1, 1024]               0
           Linear-60                   [-1, 34]           34850
           Linear-61                 [-1, 2048]        16779264
             ReLU-62                 [-1, 2048]               0
          Dropout-63                 [-1, 2048]               0
           Linear-64                 [-1, 1024]         2098176
             ReLU-65                 [-1, 1024]               0
          Dropout-66                 [-1, 1024]               0
           Linear-67                   [-1, 34]           34850
           Linear-68                 [-1, 2048]        16779264
             ReLU-69                 [-1, 2048]               0
          Dropout-70                 [-1, 2048]               0
           Linear-71                 [-1, 1024]         2098176
             ReLU-72                 [-1, 1024]               0
          Dropout-73                 [-1, 1024]               0
           Linear-74                   [-1, 34]           34850
           Linear-75                 [-1, 2048]        16779264
             ReLU-76                 [-1, 2048]               0
          Dropout-77                 [-1, 2048]               0
           Linear-78                 [-1, 1024]         2098176
             ReLU-79                 [-1, 1024]               0
          Dropout-80                 [-1, 1024]               0
           Linear-81                   [-1, 34]           34850
       Classifier-82  [[-1, 31], [-1, 24], [-1, 34], [-1, 34], [-1, 34], [-1, 34], [-1, 34]]               0
================================================================
Total params: tensor(1.4709e+08)
Trainable params: tensor(1.4709e+08)
Non-trainable params: tensor(0)
----------------------------------------------------------------
Train Epoch: 1 [2560/5102 (50%)]	Loss: 3.433254 3.177240 3.526273 3.525510 3.518400 3.526382 3.527689
…
Train Epoch: 500 [4760/5102 (100%)]	Loss: 8.227511 7.640341 7.668159 7.634099 0.000068 7.826717 8.235416
lr_rate: 0.009135172474836408

Test set: Average loss: 5.5786, Accuracy: 9/375 (2%) (3%) (3%) (4%) (69%) (2%) (5%)

Checkpoint saved to ./model/model_pr_epoch_500.pth
nohup: ignoring input
Namespace(batchSize=256, gpu='1', lr=0.01, momentum=0.9, nEpochs=600, seed=123, testBatchSize=10, threads=1)
===> Loading datasets
===> Building model
----------------------------------------------------------------
        Layer (type)               Output Shape         Param #
================================================================
            Conv2d-1          [-1, 64, 72, 272]            1792
              ReLU-2          [-1, 64, 72, 272]               0
            Conv2d-3          [-1, 64, 72, 272]           36928
              ReLU-4          [-1, 64, 72, 272]               0
         MaxPool2d-5          [-1, 64, 36, 136]               0
            Conv2d-6         [-1, 128, 36, 136]           73856
              ReLU-7         [-1, 128, 36, 136]               0
            Conv2d-8         [-1, 128, 36, 136]          147584
              ReLU-9         [-1, 128, 36, 136]               0
        MaxPool2d-10          [-1, 128, 18, 68]               0
           Conv2d-11          [-1, 256, 18, 68]          295168
             ReLU-12          [-1, 256, 18, 68]               0
           Conv2d-13          [-1, 256, 18, 68]          590080
             ReLU-14          [-1, 256, 18, 68]               0
           Conv2d-15          [-1, 256, 18, 68]          590080
             ReLU-16          [-1, 256, 18, 68]               0
        MaxPool2d-17           [-1, 256, 9, 34]               0
           Conv2d-18           [-1, 512, 9, 34]         1180160
             ReLU-19           [-1, 512, 9, 34]               0
           Conv2d-20           [-1, 512, 9, 34]         2359808
             ReLU-21           [-1, 512, 9, 34]               0
           Conv2d-22           [-1, 512, 9, 34]         2359808
             ReLU-23           [-1, 512, 9, 34]               0
        MaxPool2d-24           [-1, 512, 4, 17]               0
           Conv2d-25           [-1, 512, 4, 17]         2359808
             ReLU-26           [-1, 512, 4, 17]               0
           Conv2d-27           [-1, 512, 4, 17]         2359808
             ReLU-28           [-1, 512, 4, 17]               0
           Conv2d-29           [-1, 512, 4, 17]         2359808
             ReLU-30           [-1, 512, 4, 17]               0
        MaxPool2d-31            [-1, 512, 2, 8]               0
           Linear-32                 [-1, 2048]        16779264
             ReLU-33                 [-1, 2048]               0
          Dropout-34                 [-1, 2048]               0
           Linear-35                 [-1, 1024]         2098176
             ReLU-36                 [-1, 1024]               0
          Dropout-37                 [-1, 1024]               0
           Linear-38                   [-1, 31]           31775
           Linear-39                 [-1, 2048]        16779264
             ReLU-40                 [-1, 2048]               0
          Dropout-41                 [-1, 2048]               0
           Linear-42                 [-1, 1024]         2098176
             ReLU-43                 [-1, 1024]               0
          Dropout-44                 [-1, 1024]               0
           Linear-45                   [-1, 24]           24600
           Linear-46                 [-1, 2048]        16779264
             ReLU-47                 [-1, 2048]               0
          Dropout-48                 [-1, 2048]               0
           Linear-49                 [-1, 1024]         2098176
             ReLU-50                 [-1, 1024]               0
          Dropout-51                 [-1, 1024]               0
           Linear-52                   [-1, 34]           34850
           Linear-53                 [-1, 2048]        16779264
             ReLU-54                 [-1, 2048]               0
          Dropout-55                 [-1, 2048]               0
           Linear-56                 [-1, 1024]         2098176
             ReLU-57                 [-1, 1024]               0
          Dropout-58                 [-1, 1024]               0
           Linear-59                   [-1, 34]           34850
           Linear-60                 [-1, 2048]        16779264
             ReLU-61                 [-1, 2048]               0
          Dropout-62                 [-1, 2048]               0
           Linear-63                 [-1, 1024]         2098176
             ReLU-64                 [-1, 1024]               0
          Dropout-65                 [-1, 1024]               0
           Linear-66                   [-1, 34]           34850
           Linear-67                 [-1, 2048]        16779264
             ReLU-68                 [-1, 2048]               0
          Dropout-69                 [-1, 2048]               0
           Linear-70                 [-1, 1024]         2098176
             ReLU-71                 [-1, 1024]               0
          Dropout-72                 [-1, 1024]               0
           Linear-73                   [-1, 34]           34850
           Linear-74                 [-1, 2048]        16779264
             ReLU-75                 [-1, 2048]               0
          Dropout-76                 [-1, 2048]               0
           Linear-77                 [-1, 1024]         2098176
             ReLU-78                 [-1, 1024]               0
          Dropout-79                 [-1, 1024]               0
           Linear-80                   [-1, 34]           34850
       Classifier-81  [[-1, 31], [-1, 24], [-1, 34], [-1, 34], [-1, 34], [-1, 34], [-1, 34]]               0
================================================================
Total params: tensor(1.4709e+08)
Trainable params: tensor(1.4709e+08)
Non-trainable params: tensor(0)
----------------------------------------------------------------
Train Epoch: 1 [2560/5102 (50%)]	Loss: 3.433169 3.188484 3.537875 3.557410 3.347093 3.527641 3.563522
…
